model.pth (torch, 69623 bytes, 44 tensors)

encoder.encode_network.0.weight f4 [16, 1, 3, 3]
0.35467067 0.024163237 -0.228386 0.31758463 0.10432662 -0.013235799 -0.2765631 0.17881863
0.26295197 -0.19675295 -0.12652783 0.26431096 -0.3491951 0.1312204 0.06820354 0.10565261
0.06786757 0.13829789 0.32050166 0.118558705 -0.069118954 -0.112029545 -0.23378104 -0.23220478
-0.17619324 0.15931569 -0.15338951 0.2203669 0.06750401 0.21242236 -0.2899032 -0.119769104
-0.013938038 0.076940544 0.05334476 0.28556553 -0.06559131 -0.004724387 -0.13700333 0.055137403
-0.14879195 0.15319857 -0.0266439 0.14656344 0.28341416 -0.22509779 -0.3011468 0.03544387
-0.10147046 0.2670037 0.13745582 -0.019968798 -0.16976617 0.2473296 0.0882534 -0.071644194
0.26777565 0.2456873 -0.20981938 -0.26783526 0.06798029 0.12229067 -0.20646833 0.21654554
0.00601008 -0.12822002 0.044715554 0.30892837 0.2655836 -0.30232626 -0.23375681 -0.15823932
0.25666437 0.04359769 0.123369426 0.33341432 -0.25336564 0.31525108 0.31020498 -0.27249435
0.24137452 -0.067064494 -0.09980402 0.11875754 -0.04352061 0.23080873 0.15754206 0.224069
0.17307991 -0.1725305 -0.045023628 0.27586815 -0.08473067 -0.3533896 -0.33627674 -0.17188089
0.29048237 0.07119835 -0.29975984 -0.07626485 0.24756001 -0.0037643607 0.08875564 -0.13224706
-0.32461512 0.12641925 -0.24652947 -0.29979706 -0.31345564 0.06486877 -0.28437257 -0.021851962
0.3108411 -0.16294868 0.08494357 -0.33527437 0.15745793 0.119091734 0.10482957 0.070810094
0.05192761 0.40252987 0.23174517 0.17662317 0.16726457 -0.23595889 -0.0843932 0.3088842
-0.11707459 -0.02717423 -0.20328876 -0.00060256745 -0.00096102315 0.1697419 0.14380105 0.27270028
0.17422917 0.09386806 0.25764853 -0.0045153718 0.044336267 0.15503606 -0.12301196 0.17036603
00000000: 6597 b53e fbf1 c53c 05de 69be 749a a23e
00000010: 32a9 d53d f7da 58bc ae99 8dbe 3b1c 373e
00000020: a4a1 863e 9b79 49be 8390 01be c453 873e
00000030: b3c9 b2be a45e 063e 4cae 8b3d 6560 d83d
00000040: 27fe 8a3d f69d 0d3e cb18 a43e e8ce f23d
00000050: 3d8e 8dbd bf6f e5bd 4c64 6fbe 17c7 6dbe
00000060: 006c 34be a723 233e 2412 1dbe dca7 613e
00000070: 8b3f 8a3d 3f85 593e 316e 94be 8149 f5bd
00000080: 5e5c 64bc 0193 9d3d 0980 5a3d a535 923e
00000090: bd54 86bd 08cf 9abb 9a4a 0cbe c2d7 613d
000000a0: eb5c 18be 16e0 1c3e 4f44 dabc ba14 163e
000000b0: a91b 913e 0980 66be ea2f 9abe 972d 113d
000000c0: bfcf cfbd b5b4 883e 38c1 0c3e 9b95 a3bc
000000d0: 2fd7 2dbe f843 7d3e 33be b43d 31ba 92bd
000000e0: e419 893e 7495 7b3e e4da 56be b421 89be
000000f0: 4039 8b3d 8873 fa3d 6f6c 53be 1dbe 5d3e
00000100: 35f0 c43b 1c4c 03be a827 373d dc2b 9e3e
00000110: 93fa 873e 82ca 9abe f25d 6fbe 7d09 22be
00000120: 8369 833e 7e93 323d 1ca9 fc3d 48b5 aa3e
00000130: 24b9 81be 9768 a13e 30d3 9e3e 6184 8bbe
00000140: e22a 773e 1c59 89bd 0d66 ccbd 2737 f33d
00000150: ab42 32bd 2059 6c3e b552 213e 5872 653e
00000160: dc3b 313e d6ab 30be b26a 38bd 973e 8d3e
00000170: 4687 adbd 7bef b4be 772c acbe 8b01 30be
00000180: 1bba 943e 71d0 913d 1f7a 99be bf30 9cbd
00000190: 5f80 7d3e 7eb3 76bb 84c5 b53d c66b 07be
000001a0: f433 a6be 0c74 013e 3972 7cbe 007f 99be
000001b0: 427d a0be ebd9 843d 4899 91be e302 b3bc
000001c0: 9126 9f3e 05dc 26be e5f6 ad3d 15a9 abbe
000001d0: a73c 213e 5ee6 f33d e3b0 d63d e204 913d
000001e0: 0cb2 543d 6518 ce3e 9b4e 6d3e b4dc 343e
000001f0: 6747 2b3e 359f 71be 58d6 acbd 1226 9e3e
00000200: cdc4 efbd 7e9c debc ee2a 50be 9ef5 1dba
00000210: 2ced 7bba d2d0 2d3e 9540 133e 5f9f 8b3e
00000220: 2269 323e e63d c03d 82ea 833e aff5 93bb
00000230: f299 353d c6c1 1e3e b2ed fbbd 6f74 2e3e

encoder.encode_network.0.bias f4 [16]
0.18240382 0.031554524 0.320361 -0.13023807 -0.30605343 0.19748567 0.19034855 -0.28471377
-0.2050754 -0.21004795 -0.12938732 0.22568779 0.100728914 -0.17382546 -0.16311781 0.28194627
00000000: 11c8 3a3e 513f 013d 5b06 a43e 215d 05be
00000010: 09b3 9cbe af39 4a3e bbea 423e 01c6 91be
00000020: 49ff 51be cf16 57be 1c7e 04be b31a 673e
00000030: f64a ce3d 4dff 31be 5b08 27be 435b 903e

encoder.encode_network.1.weight f4 [16]
0.93785715 1.0167634 1.0439051 1.0089569 1.0068439 1.0303652 0.9942736 1.0090201
1.0043598 0.94583905 1.0787269 1.067606 1.0674088 0.9992093 0.9450473 0.95472544
00000000: 6817 703f 4e25 823f af9e 853f 8025 813f
00000010: 43e0 803f 02e3 833f b788 7e3f 9227 813f
00000020: dd8e 803f 8222 723f b913 8a3f 50a7 883f
00000030: daa0 883f 2ecc 7f3f 9fee 713f e368 743f

encoder.encode_network.1.bias f4 [16]
0.077228315 0.060195036 0.036670998 0.09539357 0.0839293 -0.0020571393 0.09467471 -0.013219771
0.033500206 0.07451509 0.032438215 0.06080227 0.030717812 0.04061017 0.046780936 0.0013820054
00000000: e129 9e3d 128f 763d 5434 163d b45d c33d
00000010: 20e3 ab3d 12d1 06bb d0e4 c13d bd97 58bc
00000020: 8337 093d 5e9b 983d efdd 043d cd0b 793d
00000030: eca3 fb3c da56 263d 5e9d 3f3d 6824 b53a

encoder.encode_network.1.running_mean f4 [16]
-0.33107948 -0.037641067 0.5895613 -0.4492148 -0.48560947 0.27873248 0.17755589 -0.3188772
-0.94677186 -0.584161 0.34018156 0.6611306 0.43518186 -0.9527991 -0.29323316 -0.4334297
00000000: 4083 a9be 852d 1abd 7ded 163f 7bff e5be
00000010: cea1 f8be 06b6 8e3e 36d1 353e df43 a3be
00000020: a45f 72bf 938b 15bf 472c ae3e db3f 293f
00000030: 28d0 de3e a4ea 73bf a822 96be 7fea ddbe

encoder.encode_network.1.running_var f4 [16]
0.14820336 0.07545163 0.08628484 0.07099061 0.04968815 0.069521464 0.03813391 0.050519798
0.28830603 0.09226792 0.13992275 0.16818576 0.06738534 0.34450886 0.015845446 0.27344272
00000000: 9fc2 173e 6286 9a3d 1bb6 b03d 8663 913d
00000010: cd85 4b3d 4561 8e3d 4e32 1c3d d9ed 4e3d
00000020: d99c 933e f7f6 bc3d e947 0f3e e338 2c3e
00000030: 5301 8a3d 7763 b03e 4fce 813c af00 8c3e

encoder.encode_network.4.weight f4 [16, 16, 3, 3]
-0.016632117 0.03632404 -0.020847471 -0.06317419 0.055138648 -0.029381782 -0.05063646 0.012813507
-0.014481329 0.002165257 0.04129752 -0.009134992 0.033608712 0.006746736 0.0751562 0.056700435
0.025501046 -0.016869294 0.048379306 -0.084232375 -0.10162284 0.109952904 0.06235689 0.04318196
-0.039696727 -0.109943174 -0.05707418 -0.07577661 -0.075451784 0.052609395 0.09232275 -0.0076133856
0.08764084 -0.05071725 -0.026765982 0.072437055 0.053253397 0.04252564 -0.010318104 0.043915078
0.06940964 -0.056094524 -0.031791005 -0.0044955844 -0.062012207 -0.047048505 0.03846873 0.025491888
0.08803493 -0.024515359 0.0822925 0.046474226 -0.041633546 0.0066999053 -0.019958865 -0.087284766
-0.020811519 -0.054911505 0.013399931 -0.019174408 -0.059433397 -0.032961447 0.028777054 0.00049737317
-0.07874491 -0.029587163 -0.049203366 -0.06176224 -0.05566657 -0.09496817 -0.09070338 -0.007904577
-0.012412023 0.06304587 0.06891887 -0.08302567 -0.034222443 0.063154586 -0.090660006 -0.037560094
-0.01548401 0.018196471 -0.021971177 -0.07154396 0.00777609 0.0672521 0.036841836 -0.015964732
-0.04616202 -0.08458436 0.030173134 -0.07814962 -0.033742502 0.022186838 -0.003369899 0.092859864
-0.019867219 0.028990177 -0.114848725 -0.05967033 0.064073 -0.04668984 0.052312743 0.08430861
-0.073166534 0.007300272 0.027780442 -0.110277 -0.005261581 0.015274812 -0.030542795 0.042184103
0.037840296 0.049987715 -0.05580388 0.024145808 -0.06905 0.059666485 -0.046191186 0.075075984
0.009091416 0.03458804 0.0038010674 -0.10351163 -0.043552063 -0.048688475 0.020446697 0.0045034974
-0.036947887 -0.040045943 0.069144204 0.09189416 0.025965314 0.043471817 -0.028765569 0.037494607
-0.05765402 0.073981225 -0.00989557 -0.023629088 -0.038696792 0.0033205426 -0.029415801 -0.002125403
-0.045117307 -0.030758133 -0.038713682 0.054217845 -0.015046967 -0.038650826 -0.04299593 0.049149208
7.645084e-05 -0.034995988 0.12108417 -0.04196521 0.05117719 -0.0033528176 0.04452065 -0.07614075
0.0096275 -0.03899058 0.07387399 -0.015349973 -0.13510817 -0.05376973 0.09949877 0.04708076
-0.013527578 0.04495589 -0.060523327 -0.0010310565 0.03304131 -0.10484731 -0.042671036 0.013849366
-0.033676233 -0.006361603 -0.011934234 -0.009749724 -0.018508537 0.02284879 0.00213814 -0.07132877
-0.008817979 0.010530139 0.0820022 -0.05426867 0.018308176 -0.04221703 0.030433841 -0.04299438
-0.04846613 0.07454412 -0.07647888 0.012966571 0.012375384 -0.022200774 0.010105795 -0.027060758
0.008165798 -0.058715023 -0.028290952 -0.06343824 -0.011150317 -0.054948222 -0.048318423 0.059688006
0.053890076 -0.0347303 0.046646748 0.038246475 -0.057645656 -0.017943522 -0.022521682 -0.05335221
-0.013315238 0.08319603 -0.026932841 0.020361632 0.09302842 0.01990671 -0.0032974062 0.031975914
0.057767566 -0.018577892 -0.032576162 -0.071260996 -0.048961032 0.038221646 0.016864657 -0.046656933
-0.06731845 0.065843254 0.0412267 -0.09020759 -0.09609311 0.015410145 -0.048604246 -0.11203598
0.012400524 0.08505409 -0.08426191 -0.016173532 0.04200523 -0.09803845 -0.065401055 -0.03457715
-0.09660773 0.077217676 0.079600625 0.03857249 -0.018358495 0.035781138 0.03708891 -0.02244451
00000000: 1440 88bc 84c8 143d 51c8 aabc 7861 81bd
00000010: 10d9 613d 10b2 f0bc 2d68 4fbd beef 513c
00000020: 1943 6dbc fce6 0d3b 9727 293d efaa 15bc
00000030: 4aa9 093d b913 dd3b 7eeb 993d b73e 683d
00000040: 92e7 d03c 7931 8abc 6129 463d 0682 acbd
00000050: a31f d0bd fd2e e13d f069 7f3d 91df 303d
00000060: 0999 22bd e329 e1bd 9ec6 69bd c430 9bbd
00000070: 7786 9abd f37c 573d b613 bd3d b579 f9bb
00000080: 0a7d b33d e4bc 4fbd 5544 dbbc e159 943d
00000090: 3c20 5a3d 5e2f 2e3d 440d 29bc 4ce0 333d
000000a0: a426 8e3d 5fc3 65bd 4937 02bd b24f 93bb
000000b0: 8300 7ebd efb5 40bd 6391 1d3d 5dd4 d03c
000000c0: a84b b43d 6fd4 c8bc f888 a83d c25b 3e3d
000000d0: f087 2abd e18a db3b c680 a3bc 5bc2 b2bd
000000e0: eb7c aabc e3ea 60bd 628b 5b3c a613 9dbc
000000f0: 6f70 73bd 9502 07bd dbbd eb3c 2662 023a
00000100: 0345 a1bd c760 f2bc 7889 49bd 67fa 7cbd
00000110: a102 64bd ac7e c2bd b2c2 b9bd 3382 01bc
00000120: cc5b 4bbc 311e 813d 5625 8d3d 5d09 aabd
00000130: d52c 0cbd 3157 813d f4ab b9bd 9dd8 19bd
00000140: a5b0 7dbc c410 953c e6fc b3bc a485 92bd
00000150: 92ce fe3b 78bb 893d 77e7 163d 78c8 82bc
00000160: 6314 3dbd 913a adbd a62d f73c e80c a0bd
00000170: 9435 0abd 2cc1 b53c 86d9 5cbb 502d be3d
00000180: 94c0 a2bc cf7c ed3c cf35 ebbd e068 74bd
00000190: b438 833d d83d 3fbd e345 563d fea9 ac3d
000001a0: 56d8 95bd 1f37 ef3b cf93 e33c e8d8 e1bd
000001b0: 5769 acbb 3443 7a3c e234 fabc 3dc9 2c3d
000001c0: 6dfe 1a3d ebbf 4c3d 9c92 64bd 6ecd c53c
000001d0: 166a 8dbd d864 743d f832 3dbd 70c1 993d
000001e0: 2af4 143c 30ac 0d3d 541b 793b e8fd d3bd
000001f0: a663 32bd 916d 47bd d57f a73c 1392 933b
00000200: ab56 17bd 3707 24bd 7a9b 8d3d 0133 bc3d
00000210: 36b5 d43c 810f 323d c5a5 ebbc f293 193d
00000220: 9f26 6cbd 7883 973d 0721 22bc ca91 c1bc
00000230: 8780 1ebd 769d 593b 68f9 f0bc 584a 0bbb
00000240: edcc 38bd 7bf8 fbbc 3d92 1ebd 8813 5e3d
00000250: 8e87 76bc 5450 1ebd 801c 30bd ae50 493d
00000260: 3b54 a038 f457 0fbd fafa f73d b6e3 2bbd
00000270: 2c9f 513d f2ba 5bbb 495b 363d aeef 9bbd
00000280: a9bc 1d3c 96b4 1fbd 3f4b 973d 747e 7bbc
00000290: cc59 0abe a63d 5cbd 03c6 cb3d c1d7 403d
000002a0: c6a2 5dbc ab23 383d 4fe7 77bd 8424 87ba
000002b0: 5356 073d 30ba d6bd d3c7 2ebd 74e8 623c
000002c0: 17f0 09bd fe74 d0bb ce87 43bc 4ebd 1fbc
000002d0: 379f 97bc 632d bb3c 0920 0c3b d114 92bd
000002e0: 4979 10bc 9b86 2c3c c5f0 a73d d348 5ebd
000002f0: 07fb 953c c4eb 2cbd 6450 f93c e01a 30bd
00000300: 6c84 46bd 96aa 983d f6a0 9cbd be71 543c
00000310: 1fc2 4a3c 66de b5bc c792 253c 86ae ddbc
00000320: d7c9 053c 2a7f 70bd 6dc2 e7bc e8eb 81bd
00000330: d2af 36bc 6311 61bd 8ae9 45bd 697b 743d
00000340: d7bb 5c3d 5c41 0ebd a910 3f3d 56a8 1c3d
00000350: da1d 6cbd 4bfe 92bc 647f b8bc d987 5abd
00000360: 2828 5abc ae62 aa3d 43a2 dcbc 70cd a63c
00000370: af85 be3d 6613 a33c 4c19 58bb 2df9 023d
00000380: af9d 6c3d aa30 98bc 956e 05bd 49f1 91bd
00000390: 5d8b 48bd 4d8e 1c3d c027 8a3c 571b 3fbd
000003a0: 41de 89bd d4d8 863d 54dd 283d c2be b8bd
000003b0: 77cc c4bd d57a 7c3c 3f15 47bd 1f73 e5bd
000003c0: 912b 4b3c d730 ae3d 8291 acbd 5b7e 84bc
000003d0: ad0d 2c3d 62c8 c8bd fdf0 85bd c5a0 0dbd
000003e0: 46da c5bd 4d24 9e3d a705 a33d 30fe 1d3d
000003f0: 8e64 96bc 3e8f 123d 8aea 173d 8ddd b7bc

encoder.encode_network.4.bias f4 [16]
0.010683241 -0.08340495 0.0271998 0.08099869 0.04157874 -0.027275829 -0.081174344 -0.057340432
0.0058847796 0.008167844 -0.050373953 0.047313947 0.002486612 -0.06997269 0.030445565 0.06654826
00000000: c308 2f3c 37d0 aabd 1dd2 de3c a4e2 a53d
00000010: 784e 2a3d 8f71 dfbc bc3e a6bd cddd 6abd
00000020: 1cd5 c03b 6cd2 053c eb54 4ebd 45cc 413d
00000030: 6df6 223b d74d 8fbd fa68 f93c 744a 883d

encoder.encode_network.5.weight f4 [16]
1.0387193 1.0699316 0.98965156 0.9702233 1.0360924 1.0300618 0.9286673 0.9721858
0.96346295 1.0355277 0.96008486 1.0524783 1.024794 1.0272689 0.99766314 0.95931774
00000000: c1f4 843f 85f3 883f ce59 7d3f 8e60 783f
00000010: ad9e 843f 11d9 833f 24bd 6d3f 2be1 783f
00000020: 82a5 763f 2c8c 843f 1fc8 753f 9cb7 863f
00000030: 732c 833f 8c7d 833f da66 7f3f d995 753f

encoder.encode_network.5.bias f4 [16]
-0.019215975 0.0022982175 0.057871267 0.05460686 0.00025085793 -0.019581234 0.01955208 0.07049161
0.0050437036 0.005153823 0.1069154 -0.049934942 0.058233187 -0.04277775 0.15093434 0.0012602762
00000000: d26a 9dbc b19d 163b 6c0a 6d3d 71ab 5f3d
00000010: 9585 8339 d368 a0bc af2b a03c e85d 903d
00000020: a745 a53b 67e1 a83b 76f6 da3d 9588 4cbd
00000030: ec85 6e3d b937 2fbd 888e 1a3e da2f a53a

encoder.encode_network.5.running_mean f4 [16]
-0.24553816 -0.6923185 -0.02133071 0.1440182 -0.90708774 -0.1912825 -0.22533284 0.24034682
0.009104423 0.026472222 0.83389485 -0.5419431 -0.17424071 -0.8893504 -0.48430783 0.27019125
00000000: 5b6e 7bbe c93b 31bf bebd aebc 8279 133e
00000010: e736 68bf 8fdf 43be a7bd 66be 7a1d 763e
00000020: b82a 153c 46dc d83c 227a 553f c8bc 0abf
00000030: 286c 32be 78ac 63bf 32f7 f7be 8256 8a3e

encoder.encode_network.5.running_var f4 [16]
0.46987933 0.24214418 0.6219733 0.2772054 0.37760255 0.24975084 0.48768544 1.137852
0.725596 0.480682 1.0480245 0.46275502 0.77013814 0.32146195 0.4777149 0.3106612
00000000: 0694 f03e a5f4 773e a439 1f3f deed 8d3e
00000010: 1f55 c13e afbe 7f3e e8b1 f93e 22a5 913f
00000020: a9c0 393f f31b f63e ab25 863f 3aee ec3e
00000030: c627 453f a996 a43e 0c97 f43e fc0e 9f3e

encoder.encode_network.8.weight f4 [16, 16, 3, 3]
0.008107471 -0.07663088 -0.11369624 -0.005270514 -0.08478333 -0.08575026 0.04829334 -0.018062642
-0.013971737 0.029745061 -0.08440518 0.012940177 0.042679846 -0.076548874 -0.022962835 0.04734889
-0.03445697 -0.038470328 0.07887327 -0.070868134 0.057134774 -0.06693053 -0.014367538 -0.032425288
0.080323994 0.04508273 0.0050453134 0.0010017521 -0.030263038 -0.01138005 -0.030140448 -0.014623995
-0.070233524 0.007963285 0.036183942 0.0037353288 -0.018252524 -0.014932106 0.03327061 0.018181242
0.058204934 -0.10863147 -0.02444872 -0.054922 0.022891006 0.03269664 -0.0534713 -0.0133759575
-0.1508836 -0.05426193 -0.011539507 -0.066512436 -0.018207436 0.007452112 0.044459276 0.062125325
-0.005629636 -0.020217285 0.022863923 -0.0143733695 -0.0044613206 -0.05756103 0.059890077 -0.012957745
0.02168857 0.07234071 0.014277963 0.017627003 -0.0040722485 0.057853784 0.020735227 0.06226163
-0.058007367 -0.018398548 -0.015878977 -0.031775367 0.0007747348 0.062980436 -0.059099298 -0.022435375
0.08738695 -0.10743309 -0.036348574 0.019575603 0.054466397 -0.08286173 -0.031783454 0.06616272
-0.027102536 -0.03800457 0.021255754 0.0028904583 -0.0019311092 -0.105014876 0.027623331 0.07670997
0.0044395556 0.038007356 -0.028805373 -0.044036757 -0.10482202 -0.022970352 0.07022372 0.026212594
0.05112095 -0.034550462 -0.13940868 0.08146009 0.10327424 0.024786443 0.06986315 -0.08904832
0.05938138 0.0113877375 0.011999571 0.06486691 0.04859187 -0.0856359 0.047441505 -0.036593035
-0.02930219 -0.05384237 0.11561505 0.053014003 0.05246652 0.058870066 0.05988894 0.03998994
-0.046937007 0.01353684 0.012515314 -0.021411913 -0.005995461 -0.0122411605 0.08190815 -0.09366896
0.002015993 0.0040187533 -0.036539987 -0.021293987 -0.03183993 0.036327034 0.062017906 0.028499212
-0.06925011 -0.0841382 -0.021854041 -0.07079963 0.04622069 -0.038108334 -0.028882144 0.055219185
0.10356928 0.06831732 -0.046052266 0.088667214 -0.0122711705 -0.03254661 0.09593911 -0.011181663
-0.030330982 -0.04126127 -0.053030625 -0.058752358 -0.057884283 -0.08913558 -0.04698146 0.0690072
0.025219666 -0.029635724 -0.000853709 -0.08771559 0.020246299 -0.0489288 -0.048316058 -0.04045084
-0.022238124 0.03373194 -0.107980624 -0.078600384 -0.03699303 0.060443558 0.08814357 -0.07062107
-0.024109181 -0.03890453 0.08394015 -0.0357567 0.12931716 -0.08578693 0.04291651 0.02411197
0.022480477 -0.052992385 0.002825191 -0.012596955 0.040289894 -0.021186719 -0.08474519 -0.069914944
0.025167925 -0.027111894 0.020084448 0.061727196 0.03790469 0.04657267 -0.044752657 0.03285519
-0.07746538 -0.033918884 -0.036007013 0.018033134 -0.074761644 0.015531587 0.010489289 0.021248218
0.013796165 0.04201669 -0.00050489587 -0.019098625 -0.003944585 0.0236195 0.054621026 0.11298564
-0.014808723 -0.07550414 -0.005103986 -0.004551902 0.073463544 -0.043030065 0.014491599 0.055803202
0.016515443 0.11337156 0.04243333 0.031078476 0.05529898 -0.07586796 -0.04157338 0.047405697
0.0025219354 -0.10850496 0.028998174 -0.058109287 -0.06615685 -0.029465746 -0.036082085 0.038231857
0.010908741 0.052683767 0.0479879 -0.07162917 -0.020021101 0.024285827 -0.004240504 0.049037132
00000000: 33d5 043c a7f0 9cbd 93d9 e8bd 47b4 acbb
00000010: e2a2 adbd d59d afbd 3dcf 453d 1bf8 93bc
00000020: b6e9 64bc eaab f33c 9fdc acbd 0903 543c
00000030: 10d1 2e3d a8c5 9cbd 8e1c bcbc e9f0 413d
00000040: c022 0dbd 1093 1dbd 4f88 a13d 5023 91bd
00000050: 2706 6a3d e012 89bd d265 6bbc 61d0 04bd
00000060: e880 a43d aba8 383d 2853 a53b 394d 833a
00000070: 31ea f7bc 6473 3abc 1ae9 f6bc 7b99 6fbc
00000080: 98d6 8fbd 7078 023c 9d35 143d 6bcc 743b
00000090: 5186 95bc cba5 74bc c346 083d d4f0 943c
000000a0: 4c68 6e3d 2d7a debd af48 c8bc e4f5 60bd
000000b0: eb85 bb3c e9ec 053d b904 5bbd d526 5bbc
000000c0: 3b81 1abe c241 5ebd 3310 3dbc ac37 88bd
000000d0: c327 95bc d930 f43b ee1a 363d 2077 7e3d
000000e0: cf78 b8bb b89e a5bc 1f4d bb3c 487e 6bbc
000000f0: 4530 92bb 1dc5 6bbd 4c4f 753d b94c 54bc
00000100: 3aac b13c 5e27 943d 1eee 693c 8166 903c
00000110: 7f70 85bb 17f8 6c3d ecdc a93c 0d06 7f3d
00000120: 2299 6dbd 8db8 96bc a114 82bc e326 02bd
00000130: 9317 4b3a e3fb 803d 1b12 72bd 64ca b7bc
00000140: eef7 b23d e105 dcbd 3ee2 14bd 045d a03c
00000150: 2818 5f3d 69b3 a9bd 5e2f 02bd 5280 873d
00000160: 2306 debc aeaa 1bbd 8c20 ae3c d86d 3d3b
00000170: 461d fdba 0a12 d7bd 534a e23c 1e1a 9d3d
00000180: b179 913b 9aad 1b3d 3ff9 ebbc e35f 34bd
00000190: edac d6bd 522c bcbc 74d1 8f3d cbbb d63c
000001a0: 3464 513d c984 0dbd 26c1 0ebe 8cd4 a63d
000001b0: 7281 d33d f00c cb3c 6914 8f3d f75e b6bd
000001c0: e439 733d a293 3a3c d999 443c f1d8 843d
000001d0: 4508 473d e061 afbd 0652 423d 94e2 15bd
000001e0: 250b f0bc d189 5cbd 95c7 ec3d 3625 593d
000001f0: 22e7 563d bd21 713d 1b4e 753d 7ecc 233d
00000200: 0541 40bd 9fc9 5d3c 080d 4d3c 0968 afbc
00000210: 9275 c4bb 268f 48bc 76bf a73d 83d5 bfbd
00000220: c01e 043b bfaf 833b f4aa 15bd ba70 aebc
00000230: 966a 02bd a8cb 143d 7d06 7e3d 2e77 e93c
00000240: 00d3 8dbd a650 acbd 3f07 b3bc 65ff 90bd
00000250: e851 3d3d 7c17 1cbd 3f9a ecbc 832d 623d
00000260: 211c d43d f3e9 8b3d 4da1 3cbd 2897 b53d
00000270: 050d 49bc 984f 05bd b97b c43d 4b33 37bc
00000280: ae78 f8bc 9401 29bd a436 59bd 50a6 70bd
00000290: 1218 6dbd b78c b6bd a26f 40bd a653 8d3d
000002a0: 7999 ce3c 9ec6 f2bc 71cb 5fba 3ba4 b3bd
000002b0: 91db a53c 9169 48bd 0fe7 45bd c8af 25bd
000002c0: ba2c b6bc 812a 0a3d f224 ddbd 3df9 a0bd
000002d0: 0186 17bd aa93 773d 9e84 b43d c8a1 90bd
000002e0: 9e80 c5bc 5b5a 1fbd d0e8 ab3d 9e75 12bd
000002f0: b86b 043e 0fb1 afbd 39c9 2f3d 7786 c53c
00000300: fa28 b83c 8b0e 59bd d726 393b 7563 4ebc
00000310: 0407 253d c58f adbc e38e adbd 912f 8fbd
00000320: f72c ce3c c319 debc 2488 a43c a8d5 7c3d
00000330: f341 1b3d fcc2 3e3d 904e 37bd 2a93 063d
00000340: 2ba6 9ebd 87ee 0abd 177c 13bd 39ba 933c
00000350: a21c 99bd 3378 7e3c 44db 2b3c be10 ae3c
00000360: 4f09 623c b119 2c3d fd5a 04ba b874 9cbc
00000370: 9441 81bb af7d c13c 4cba 5f3d 0465 e73d
00000380: 49a0 72bc eaa1 9abd 563f a7bb 1f28 95bb
00000390: 0e74 963d 4b40 30bd 2c6e 6d3c e691 643d
000003a0: 654b 873c 592f e83d 92ce 2d3d 4a98 fe3c
000003b0: 2f81 623d a960 9bbd d948 2abd 7a2c 423d
000003c0: 0e47 253b d937 debd 948d ed3c 0104 6ebd
000003d0: 3e7d 87bd 2662 f1bc cfca 13bd 0299 1c3d
000003e0: 93ba 323c efca 573d f68e 443d 50b2 92bd
000003f0: 4b03 a4bc 12f3 c63c edf3 8abb 29db 483d

encoder.encode_network.8.bias f4 [16]
0.024887884 0.080779485 -0.01366055 0.07977445 -0.047761906 0.006379545 0.025630414 0.012729791
0.0067119785 -0.0121437255 0.021686433 0.033053726 0.036265817 -0.032048482 -0.014935153 -0.039285604
00000000: ade1 cb3c b76f a53d 80d0 5fbc c960 a33d
00000010: fda1 43bd 810b d13b e0f6 d13c 9d90 503c
00000020: 28f0 db3b 7af6 46bc bfa7 b13c 5863 073d
00000030: 778b 143d 4545 03bd 92b2 74bc f1e9 20bd

encoder.encode_network.9.weight f4 [16]
0.9665464 0.95588595 0.98376805 0.9982679 1.0041224 1.0895746 0.9950199 1.0046047
1.0167128 1.0067573 1.0012056 1.0283619 0.9748739 1.0016273 1.0019222 1.0271763
00000000: 966f 773f f1b4 743f 39d8 7b3f 7c8e 7f3f
00000010: 1587 803f 2e77 8b3f a0b9 7e3f e396 803f
00000020: a523 823f 6cdd 803f 8127 803f 5da1 833f
00000030: 5691 793f 5335 803f fd3e 803f 837a 833f

encoder.encode_network.9.bias f4 [16]
-0.014585223 -0.048518054 -0.049065378 -0.045840442 0.046891224 -0.015077999 -0.06383514 0.036217082
0.016292067 0.020648696 -0.018891621 -0.05997545 -0.0040415395 -0.07487918 0.012229862 -0.021447172
00000000: dcf6 6ebc deba 46bd c7f8 48bd 30c3 3bbd
00000010: 0311 403d b609 77bc ffbb 82bd 5d58 143d
00000020: f176 853c 7427 a93c 9ac2 9abc d1a8 75bd
00000030: e46e 84bb 415a 99bd c25f 483c fbb1 afbc

encoder.encode_network.9.running_mean f4 [16]
-0.2695894 -0.2831312 -0.7673384 -0.6892168 0.047147866 -0.40113953 -0.0453389 -0.9942786
-0.3085628 -0.19264525 -0.46960258 -0.87374896 0.24582063 -0.37770477 -0.0015460491 0.08062146
00000000: 9f07 8abe 93f6 90be 4a70 44bf 8370 30bf
00000010: 1f1e 413d 2962 cdbe 48b5 39bd 0b89 7ebf
00000020: f1fb 9dbe cc44 45be c06f f0be 03ae 5fbf
00000030: 67b8 7b3e 8562 c1be cda4 caba dd1c a53d

encoder.encode_network.9.running_var f4 [16]
0.3851062 0.4416694 0.86482954 0.49639517 1.0490899 0.5702778 0.40708324 0.44943663
0.5697332 0.2681397 0.29145673 0.43521994 0.42694595 0.5623389 0.69606966 0.7120621
00000000: a42c c53e 7e22 e23e 7865 5d3f 8227 fe3e
00000010: 9448 863f bafd 113f 376d d03e 8f1c e63e
00000020: 09da 113f 9b49 893e d139 953e 26d5 de3e
00000030: a998 da3e 71f5 0f3f 9f31 323f b449 363f

encoder.encode_network.12.weight f4 [1, 16, 3, 3]
0.011296043 -0.08059105 -0.05160885 -0.03397899 -0.043677643 0.048996847 0.04091918 0.011478492
-0.07591336 -0.030491509 0.00070017856 0.042249672 0.07890369 0.04819672 0.0016267165 -0.03782234
-0.045801412 -0.06049698 0.022570657 -0.008726277 -0.06584701 -0.07301493 -0.01381506 0.025731368
0.12247388 0.05188857 0.0635094 -0.060489822 -0.04002128 -0.009273202 -0.07379421 0.03736511
0.0737155 -0.06809397 0.09198922 0.06492196 -0.007477927 0.09126543 -0.020625439 0.09780063
-0.05315286 -0.031568967 0.037240665 -0.0044609522 -0.054391507 0.04037261 -0.11350139 0.02065672
0.049625963 -0.08829591 -0.097011626 -0.07745965 0.021005454 -0.06381248 0.035876628 -0.041869193
0.011498702 0.020121004 0.046498418 0.013555563 -0.049792618 -0.042238064 0.07406719 -0.060936075
0.021498518 -0.034476478 -0.052365404 -0.08018305 0.028870067 0.084513694 -0.019044863 -0.06081621
0.067959994 0.015949463 -0.021460615 -0.09124882 0.09432152 0.022895219 0.014967005 0.019991709
-0.039986964 0.010250645 0.04794004 -0.07731095 0.030693885 -0.027349526 -0.030292004 0.011149885
0.03152553 -0.11417654 -0.03832276 -0.058285452 0.02902654 0.03425056 -0.003738112 -0.030320244
0.029167509 0.0065954905 0.057389252 0.082740955 0.054143395 -0.06387983 0.10158671 -0.036263943
-0.06789946 -0.054466013 0.049328364 -0.064053446 -0.0032298965 0.0047699804 -0.043027613 -0.019506937
-0.01430058 -0.118480586 -0.0051411106 -0.017055087 0.020249307 -0.08401603 0.01737526 -0.021168528
0.05557261 0.009746373 0.056837287 0.051810227 0.003260337 0.05310541 -0.00870879 0.030766618
-0.09278332 -0.015832514 0.0894151 0.022977825 0.050196625 -0.027469274 -0.106654406 0.049709186
0.1032553 0.036252607 0.032227073 -0.03862006 -0.04619388 -0.05530607 -0.09513199 0.04753069
00000000: 0a13 393c ec0c a5bd cd63 53bd 8e2d 0bbd
00000010: 54e7 32bd ebb0 483d df9a 273d 4910 3c3c
00000020: 7778 9bbd 54c9 f9bc 308c 373a fe0d 2d3d
00000030: 4298 a13d ed69 453d 8c37 d53a 99eb 1abd
00000040: 439a 3bbd aecb 77bd 19e6 b83c a9f8 0ebc
00000050: ccda 86bd da88 95bd 9058 62bc 97ca d23c
00000060: 96d3 fa3d 1c89 543d 3711 823d 2dc4 77bd
00000070: 5bed 23bd a1ee 17bc 6b21 97bd 280c 193d
00000080: 27f8 963d da74 8bbd d864 bc3d cef5 843d
00000090: 6609 f5bb 5fe9 ba3d aef6 a8bc b24b c83d
000000a0: d0b6 59bd 764e 01bd ab89 183d 2e2d 92bb
000000b0: a1c9 5ebd c05d 253d 6b73 e8bd 4838 a93c
000000c0: 9844 4b3d 7cd4 b4bd 08ae c6bd 2aa3 9ebd
000000d0: a113 ac3c 1eb0 82bd 5ff3 123d 087f 2bbd
000000e0: 0d65 3c3c ced4 a43c 2075 3e3d 2718 5e3c
000000f0: 58f3 4bbd d201 2dbd 8ab0 973d 1b98 79bd
00000100: a91d b03c 3537 0dbd 1b7d 56bd 0337 a4bd
00000110: eb80 ec3c 8415 ad3d f903 9cbc 6b1a 79bd
00000120: 9c2e 8b3d 73a8 823c 2cce afbc a9e0 babd
00000130: a42b c13d c18e bb3c 2b38 753c a7c5 a33c
00000140: 5fc9 23bd 52f2 273c c65c 443d 3455 9ebd
00000150: be71 fb3c 1d0c e0bc f026 f8bc 02ae 363c
00000160: ea20 013d 64d5 e9bd 54f8 1cbd babc 6ebd
00000170: 11c9 ed3c 514a 0c3d 1dfb 74bb 2962 f8bc
00000180: b3f0 ee3c fc1e d83b fe10 6b3d 1774 a93d
00000190: 77c5 5d3d 6ed3 82bd b10c d03d 8089 14bd
000001a0: df0e 8bbd c117 5fbd 8a0c 4a3d 742e 83bd
000001b0: acac 53bb 7f4d 9c3b b93d 30bd 03cd 9fbc
000001c0: fb4c 6abc f3a5 f2bd c376 a8bb 1cb7 8bbc
000001d0: e0e1 a53c 9910 acbd 9056 8e3c 9f69 adbc
000001e0: 1ba0 633d 40af 1f3c 37ce 683d f636 543d
000001f0: 61ab 553b 0f85 593d 50af 0ebc 460a fc3c
00000200: 2e05 bebd 30b3 81bc 441f b73d fe3b bc3c
00000210: fa9a 4d3d 3e07 e1bc a06d dabd dc9b 4b3d
00000220: 8477 d33d 9d7d 143d 8900 043d 1130 1ebd
00000230: cb35 3dbd 9e88 62bd 90d4 c2bd 8aaf 423d

decoder.decode_network.0.weight f4 [1, 16, 3, 4]
-0.0022829473 0.016974652 -0.04316703 -0.06335926 0.015860438 -0.05451332 0.03572061 -0.050181746
0.008297943 -0.0028344765 -0.045723647 0.0599104 0.01288043 -0.04523449 -0.05607982 -0.014504634
-0.06911474 0.03676043 0.022949534 -0.04792154 0.06260483 0.022714142 -0.05043572 0.0005502328
0.07079497 -0.01653567 0.03981238 -0.06260325 0.06344159 -0.044427752 0.019629408 -0.04041622
-0.064601116 0.06890169 -0.047157645 -0.058221515 -0.041927427 -0.061515104 0.059792392 0.053861752
-0.064381436 0.042070836 0.08360183 0.02103804 0.06350984 0.0346202 0.077463575 0.06655119
-0.008163162 0.01087675 -0.0043911296 -0.038396075 -0.030488841 0.08360476 0.05222144 -0.039811354
-0.04205363 0.019954361 -0.010648478 0.059317783 -0.052031115 0.06772858 0.04090421 0.036931373
0.00024808198 -0.013063984 0.071822375 0.012299404 0.02121681 0.04535816 0.0014786939 -0.016750917
0.0012068897 0.05251007 0.010447395 -0.06855595 -0.0015088171 -0.04009139 -0.0150578935 0.00870727
-0.017558008 0.030690389 -0.05268531 -0.054057572 0.01514931 -0.03338838 -0.024850076 -0.014072046
0.00505358 0.022096828 0.03084343 0.03374537 0.052405328 -0.015951782 -0.0625696 -0.041212432
0.057627335 -0.07301677 -0.008032956 0.043969557 0.071612045 -0.03017932 -0.037842415 0.0506474
0.005067706 -0.0011210934 0.06186689 0.053762063 -0.038581666 0.009702543 -0.006780405 0.009149559
0.058827758 -0.022909824 -0.043255 0.070972025 0.031336345 0.031866934 -0.010043463 -0.019641649
0.0064095035 -0.065888315 -0.015708908 -0.049461644 0.06366007 -0.07180659 0.0019589756 -0.0044131875
0.056611687 0.06359283 -0.06978905 -0.05936803 -0.054426484 -0.04855339 -0.040992834 0.043331936
0.027589127 0.035351463 -0.027728235 -0.058485202 -0.038854912 0.04838322 0.037183568 -0.0018467754
-0.057619903 0.04916464 -0.07264248 0.0055484995 0.027312249 0.024159992 -0.060601562 -0.04525256
0.031625465 -0.06387161 -0.009330005 0.05162237 0.031479225 -0.04605497 0.03427055 0.031875327
0.031808846 0.029061921 -0.05033131 -0.048531964 -0.0014475957 -0.020733807 -0.086500786 0.010897547
0.051723674 -0.0011201347 0.03245074 -0.06352508 0.0546612 0.020832123 0.07699921 -0.036374807
0.025878102 0.00051012903 0.0543626 -0.07138255 -0.04759699 -0.05263521 -0.09611666 0.056122944
0.054323733 -0.0036154974 0.025397677 0.0691098 0.049222417 0.027527213 0.032620795 0.028618582
00000000: 809d 15bb 6d0e 8b3c e9cf 30bd 80c2 81bd
00000010: c0ed 813c 5c49 5fbd c64f 123d 608b 4dbd
00000020: 18f4 073c a0c2 39bb b848 3bbd 9c64 753d
00000030: 7008 533c cd47 39bd f4b3 65bd d8a4 6dbc
00000040: 078c 8dbd 1b92 163d a900 bc3c 6049 44bd
00000050: f636 803d 0213 ba3c af95 4ebd 803d 103a
00000060: f4fc 903d d075 87bc 4e12 233d 2236 80bd
00000070: aaed 813d e0f9 35bd dacd a03c 7a8b 25bd
00000080: 974d 84bd 541c 8d3d 6028 41bd af79 6ebd
00000090: 18bc 2bbd 43f7 7bbd dee8 743d 249e 5c3d
000000a0: 6ada 83bd 7852 2c3d 7037 ab3d f857 ac3c
000000b0: 7211 823d e9cd 0d3d 39a5 9e3d fe4b 883d
000000c0: c8be 05bc 6534 323c 77e3 8fbb 3445 1dbd
000000d0: bcc3 f9bc f938 ab3d 26e6 553d 3b11 23bd
000000e0: 6d40 2cbd 5477 a33c f476 2ebc 34f7 723d
000000f0: 941e 55bd 48b5 8a3d 2c8b 273d 5a45 173d
00000100: 0011 8239 520a 56bc 9c17 933d 7083 493c
00000110: e0ce ad3c 7ac9 393d bcd0 c13a 3839 89bc
00000120: 8030 9e3a cd14 573d 8d2b 2b3c 1067 8cbd
00000130: 80c3 c5ba df36 24bd 62b5 76bc f0a8 0e3c
00000140: d0d5 8fbc 696a fb3c 8dcc 57bd 796b 5dbd
00000150: d034 783c 41c2 08bd 6392 cbbc 708e 66bc
00000160: 8098 a53b 6804 b53c 5cab fc3c 9638 0a3d
00000170: f8a6 563d 50ad 82bc 7e24 80bd 5ece 28bd
00000180: a40a 6c3d d189 95bd a99c 03bc 6c19 343d
00000190: 56a9 923d 9f3a f7bc a600 1bbd a673 4f3d
000001a0: 000f a63b a7f1 92ba 2368 7d3d 9c35 5c3d
000001b0: cf07 1ebd 6af7 1e3c 292e debb 08e8 153c
000001c0: 60f5 703d 62ad bbbc 282c 31bd c859 913d
000001d0: 8a5a 003d e786 023d 568d 24bc 86e7 a0bc
000001e0: d006 d23b 74f0 86bd f8af 80bc 4b98 4abd
000001f0: 3660 823d 550f 93bd 2862 003b 809c 90bb
00000200: a8e1 673d f53c 823d 90ed 8ebd e42b 73bd
00000210: 4eee 5ebd ebdf 46bd 1ae8 27bd d47c 313d
00000220: 9802 e23c b2cc 103d 5326 e3bc 2e8e 6fbd
00000230: 5426 1fbd 7c2d 463d cc4d 183d 800f f2ba
00000240: d902 6cbd dd60 493d 95c5 94bd 30d0 b53b
00000250: f0bd df3c 2deb c53c 5839 78bd c05a 39bd
00000260: b489 013d 1ecf 82bd e1dc 18bc fa71 533d
00000270: 5cf0 003d 23a4 3cbd 475f 0c3d b48f 023d
00000280: fe49 023d 4413 ee3c 3428 4ebd 74c9 46bd
00000290: 40bd bdba f2d9 a9bc 5327 b1bd a08b 323c
000002a0: 34dc 533d 7cd1 92ba 11eb 043d 7019 82bd
000002b0: 6ce4 5f3d 21a8 aa3c c3b1 9d3d c0fd 14bd
000002c0: 50fe d33c 2eba 053a 51ab 5e3d 0431 92bd
000002d0: 10f5 42bd 0598 57bd d0d8 c4bd 2ce1 653d
000002e0: 9082 5e3d fbf1 6cbb ca0e d03c 7089 8d3d
000002f0: 729d 493d c080 e13c 629d 053d 8471 ea3c

decoder.decode_network.0.bias f4 [16]
-0.059496466 -0.023080919 -0.0068748966 -0.0041117677 -0.029043611 0.04328648 0.045195196 0.047206905
0.08668095 0.052575875 -0.024899641 0.010853172 0.009185816 0.022099767 -0.01721972 0.07502502
00000000: 91b2 73bd 3214 bdbc d046 e1bb 02bc 86bb
00000010: deec edbc 2a4d 313d 991e 393d 075c 413d
00000020: c885 b13d cd59 573d 55fa cbbc 81d1 313c
00000030: 1b80 163c 920a b53c 5f10 8dbc b8a6 993d

decoder.decode_network.1.weight f4 [16]
1.0270467 0.99720913 0.98917454 1.000418 0.995468 0.9998058 1.0172166 1.0222225
1.0004414 1.00444 1.0087304 0.97220886 1.0136923 0.97729385 0.9784365 0.99646175
00000000: 4476 833f 1949 7f3f 8b3a 7d3f b20d 803f
00000010: fed6 7e3f 46f3 7f3f 2734 823f 30d8 823f
00000020: 770e 803f 7d91 803f 141e 813f aee2 783f
00000030: abc0 813f ee2f 7a3f d17a 7a3f 1e18 7f3f

decoder.decode_network.1.bias f4 [16]
0.030458488 -0.0148114525 -0.009169664 0.025885079 -0.060264155 -0.020687247 0.023538852 0.01276366
-0.009355898 0.00632311 -0.00043657474 -0.011201462 0.02751342 -0.009521695 -0.00262531 -0.008913198
00000000: 1484 f93c bcab 72bc 5c3c 16bc f20c d43c
00000010: 8cd7 76bd 4d78 a9bc 8dd4 c03c ac1e 513c
00000020: 7b49 19bc 1732 cf3b 12e4 e4b9 5686 37bc
00000030: d363 e13c e200 1cbc 650d 2cbb a908 12bc

decoder.decode_network.1.running_mean f4 [16]
-0.0722446 -0.023961209 -0.0074401614 0.033457134 0.0010766658 0.070436664 0.037984986 0.043509535
0.070930965 0.041177236 -0.048117045 0.012153577 -0.008682617 0.005070305 0.012452104 0.07036148
00000000: faf4 93bd 4c4a c4bc 99cc f3bb 590a 093d
00000010: e91e 8d3a 1941 903d 2596 1b3d 0e37 323d
00000020: 4144 913d 76a9 283d 6116 45bd cc1f 473c
00000030: 8941 0ebc cd24 a63b e903 4c3c ae19 903d

decoder.decode_network.1.running_var f4 [16]
9.412748e-05 0.00025486547 0.0004082974 0.0009940333 0.00018921678 0.0002174641 0.00017546763 5.463934e-05
0.00040021347 0.00013673757 0.0005485642 0.00055391795 0.0010428114 0.00060729455 0.00051221915 0.0005345224
00000000: 4e66 c538 779f 8539 c010 d639 394a 823a
00000010: 7e68 4639 1307 6439 bcfd 3739 8b2c 6538
00000020: bed3 d139 3661 0f39 85cd 0f3a ce34 113a
00000030: f2ae 883a d932 1f3a 7246 063a 311f 0c3a

decoder.decode_network.4.weight f4 [16, 16, 3, 3]
0.063446656 0.07029166 0.02322064 -0.0639116 -0.0622006 0.0150393145 0.047250498 -0.029754827
0.053849142 -0.14822245 -0.06427009 -0.070781365 -0.09123723 -0.0032530448 0.047478586 0.0041220402
-0.033600584 0.06191108 0.036634777 -0.0052609514 0.03684598 -0.032353204 0.008846196 -0.050468106
-0.005152023 0.089775324 0.00957751 0.07331277 -0.040142797 -0.055032928 0.00054204965 0.00010190576
-0.0037558812 -0.03652935 0.05344395 -0.03176764 -0.06635865 0.036592506 -0.0436545 -0.05976089
0.06900841 0.063128 -0.043767635 -0.044924185 0.06919684 -0.048196286 -0.079020314 0.06338226
-0.009207432 -0.011614577 -0.046887193 -0.07599357 0.028392846 -0.04859813 0.022393705 0.02372697
0.045994204 0.005652852 0.028778128 0.07494725 0.07477676 -0.03207403 0.06064731 -0.0858024
-0.010669483 0.09362071 -0.11918784 -0.006788296 0.051812824 -0.047994602 0.041945983 0.06549139
0.046466675 0.040268168 0.027264787 -0.0653569 0.05792795 0.018204233 -0.09094182 0.032912936
0.04676913 -0.087611474 -0.025276678 -0.033803415 -0.037153117 0.030497408 -0.007253573 -0.05958343
-0.056655433 -0.07776095 -0.003148992 0.056590952 -0.034798127 -0.011392307 0.011161358 0.08754286
-0.03272528 -0.01683626 -0.0128961 -0.045532852 -0.09742656 -0.06529369 -0.053778376 -0.03253769
-0.01744483 -0.045378864 -0.0071667107 0.014920048 0.06531944 0.016503626 0.07760547 -0.0007665295
-0.02984988 -0.06794194 0.108358055 0.022644415 0.039742354 0.02862404 0.040558845 0.05139137
0.036264822 0.063622676 -0.015644489 -0.08495287 0.00080727186 -0.024172023 0.05252296 0.038258832
0.04318646 -0.03161401 -0.02648627 -0.0196624 0.02930833 0.038372792 -0.041271757 -0.11233077
-0.07129341 -0.060089007 -0.09156036 -0.004467329 -0.08329273 0.009120492 0.02404091 0.07742913
-0.03407756 -0.048065998 0.019824306 -0.008210014 -0.080499806 -0.07624177 0.09958925 0.074358635
0.04030302 -0.041194234 0.080270715 0.0816073 -0.062436637 -0.0104302475 -0.018996792 -0.0007368167
-0.051413126 0.039288107 0.04918249 0.04636892 0.047456395 -0.0057417722 0.068032704 -0.044077773
-0.032807905 0.037934262 -0.06787262 -0.012141635 0.011513748 0.082981974 -0.052852754 -0.05977563
-0.031312503 0.08192652 0.00038470607 -0.033467215 0.029430598 0.0024027396 -0.051659368 -0.053758547
-0.032375533 -0.0067045917 -0.063434385 0.038044523 -0.0742181 0.032921202 0.05760332 0.06303225
0.078727834 -0.041855223 -0.0026528423 0.0044331243 0.037840474 0.035187595 0.09695169 0.06268113
-0.022432163 0.032931205 0.041656177 -0.07133706 0.06195171 -0.05371923 0.024534663 -0.016915837
-0.018131495 -0.022976302 -0.01959534 0.037895504 0.054005723 0.008785484 -0.06838924 -0.057222687
0.01036089 0.020724988 0.042699255 0.0020832121 0.005551886 0.039176963 -0.049588732 0.04628475
0.038605936 0.07028165 -0.06815328 0.010938212 0.043975264 0.048039403 0.044079196 0.039449617
-0.04814586 0.034577876 0.062328797 0.06624322 -0.025128376 0.015226773 0.08484558 0.064662114
-0.01210978 0.03725952 0.10660931 0.008395561 -0.030648012 -0.057553954 -0.03132449 0.057680167
-0.034216266 -0.02815323 0.016863642 -0.08268531 0.06764288 0.051977217 -0.012003825 -0.040181458
00000000: 52f0 813d 13f5 8f3d 3639 be3c 16e4 82bd
00000010: 0ec6 7ebd 7567 763c bd89 413d 65c0 f3bc
00000020: eb90 5c3d a0c7 17be 09a0 83bd d2f5 90bd
00000030: 96da babd 0931 55bb e878 423d 2e12 873b
00000040: c4a0 09bd 7996 7d3d 590e 163d 0f64 acbb
00000050: cfeb 163d cb84 04bd a3ef 103c a5b7 4ebd
00000060: 4dd2 a8bb 20dc b73d fdea 1c3c 0125 963d
00000070: c66c 24bd 356a 61bd 5618 0e3a 3db6 d538
00000080: 3b25 76bb cd9f 15bd 0be8 5a3d c91e 02bd
00000090: 0be7 87bd 06e2 153d 10cf 32bd d6c7 74bd
000000a0: 4854 8d3d 4149 813d b145 33bd 6c02 38bd
000000b0: 13b7 8d3d 7869 45bd 67d5 a1bd 8fce 813d
000000c0: c5da 16bc 114b 3ebc c90c 40bd 84a2 9bbd
000000d0: 1d98 e83c d50e 47bd 0173 b73c 105f c23c
000000e0: 6b64 3c3d 8f3b b93b 1cc0 eb3c f27d 993d
000000f0: 8f24 993d 0f60 03bd 5069 783d 2bb9 afbd
00000100: 0ecf 2ebc 37bc bf3d c118 f4bd 5b70 debb
00000110: af39 543d fd95 44bd 8dcf 2b3d 5a20 863d
00000120: d753 3e3d 3cf0 243d 675a df3c d7d9 85bd
00000130: dc45 6d3d 0b21 953c b43f babd b7cf 063d
00000140: fd90 3f3d a56d b3bd 0911 cfbc 7375 0abd
00000150: de2d 18bd b3d5 f93c 61af edbb c10d 74bd
00000160: 870f 68bd 2241 9fbd 525f 4ebb eacb 673d
00000170: 7b88 0ebd cca6 3abc 21de 363c ac49 b33d
00000180: f10a 06bd 32ec 89bc 2a4a 53bc a880 3abd
00000190: 9487 c7bd b3b8 85bd b746 5cbd 3e46 05bd
000001a0: 76e8 8ebc 30df 39bd bad6 eabb 3873 743c
000001b0: 33c6 853d 9d32 873c 9eef 9e3d edf0 48ba
000001c0: bc87 f4bc 2525 8bbd d4ea dd3d c880 b93c
000001d0: e1c8 223d f67c ea3c 0821 263d c27f 523d
000001e0: 6c8a 143d 9b4c 823d df28 80bc c5fb adbd
000001f0: 199f 533a 6804 c6bc 5122 573d 4bb5 1c3d
00000200: 49e4 303d b17d 01bd bcf9 d8bc 0b13 a1bc
00000210: 0618 f03c ca2c 1d3d 930c 29bd ad0d e6bd
00000220: 4802 92bd e41f 76bd ff83 bbbd ac62 92bb
00000230: 6195 aabd 1e6e 153c 71f1 c43c 2a93 9e3d
00000240: e994 0bbd dae0 44bd 9566 a23c 4b83 06bc
00000250: 15dd a4bd a524 9cbd 73f5 cb3d 5749 983d
00000260: c814 253d 49bb 28bd f964 a43d ba21 a73d
00000270: 8fbd 7fbd a1e3 2abc 299f 9bbc ef26 41ba
00000280: 9296 52bd 91ec 203d 9473 493d 56ed 3d3d
00000290: a361 423d 7a25 bcbb bb54 8b3d e58a 34bd
000002a0: 9561 06bd f560 1b3d cd00 8bbd b5ed 46bc
000002b0: 29a4 3c3c 74f2 a93d 217c 58bd 4ad7 74bd
000002c0: 8a41 00bd 17c9 a73d 60b2 c939 eb14 09bd
000002d0: 7018 f13c 4877 1d3b c698 53bd ec31 5cbd
000002e0: 359c 04bd 31b2 dbbb e3e9 81bd 93d4 1b3d
000002f0: a9ff 97bd 62d8 063d 75f1 6b3d 0d17 813d
00000300: 0f3c a13d 6270 2bbd 4fdb 2dbb be43 913b
00000310: 9dfe 1a3d de20 103d 9c8e c63d f75e 803d
00000320: a8c3 b7bc dfe2 063d ab9f 2a3d 2a19 92bd
00000330: 14c1 7d3d b208 5cbd ebfc c83c 1593 8abc
00000340: 8088 94bc cc38 bcbc 6886 a0bc 5138 1b3d
00000350: 1b35 5d3d fef0 0f3c a80f 8cbd 5662 6abd
00000360: b9c0 293c 73c7 a93c 6ae5 2e3d 8086 083b
00000370: 98ec b53b 0678 203d 8e1d 4bbd 1495 3d3d
00000380: 4221 1e3d d3ef 8f3d f293 8bbd 3036 333c
00000390: 681f 343d f7c4 443d 638c 343d ec95 213d
000003a0: 9834 45bd 88a1 0d3d 7b4c 7f3d 86aa 873d
000003b0: 06da cdbc b779 793c 85c3 ad3d 926d 843d
000003c0: 1968 46bc 709d 183d fb55 da3d 898d 093c
000003d0: 8a11 fbbc b2bd 6bbd 1c4e 00bd 0a42 6c3d
000003e0: 5b26 0cbd 9aa1 e6bc 9f25 8a3c ea56 a9bd
000003f0: 5a88 8a3d 10e6 543d b1ab 44bc 5095 24bd

decoder.decode_network.4.bias f4 [16]
0.036402337 0.013507325 -0.07761522 -0.0072325086 0.07705478 -0.016869508 -0.041053608 0.02614226
-0.022952693 -0.03226564 -0.00023089898 0.06695846 0.08287187 -0.04088825 -0.06399067 -0.047837593
00000000: 9e1a 153d d44d 5d3c baf4 9ebd aefe ecbb
00000010: e6ce 9d3d ec31 8abc d427 28bd 4b28 d63c
00000020: 4907 bcbc fa28 04bd 791d 72b9 8421 893d
00000030: bab8 a93d 707a 27bd 8a0d 83bd 5af1 43bd

decoder.decode_network.5.weight f4 [16]
1.0264989 0.9986764 0.99083877 1.0096827 1.0270469 0.98989725 1.013951 1.0025092
0.98293364 0.99204344 1.0115464 1.0125953 0.9858821 0.99244845 0.99263126 1.0037432
00000000: 5164 833f 42a9 7f3f 9ca7 7d3f 483d 813f
00000010: 4676 833f e869 7d3f 25c9 813f 3952 803f
00000020: 8aa1 7b3f 8ff6 7d3f 5a7a 813f b99c 813f
00000030: c562 7c3f 1a11 7e3f 151d 7e3f a87a 803f

decoder.decode_network.5.bias f4 [16]
-0.01698222 -0.031108892 -0.012950619 -0.014270441 -0.0022499529 -0.012097804 -0.036709625 -0.003624514
-0.035064124 -0.004103076 -0.010036164 0.0108072935 -0.0151048815 0.016258381 -0.004430171 -0.009127581
00000000: 4c1e 8bbc 13d8 febc d52e 54bc 91ce 69bc
00000010: f273 13bb de35 46bc d55c 16bd 4189 6dbb
00000020: 669f 0fbd 1973 86bb b96e 24bc 1311 313c
00000030: 777a 77bc 4c30 853c f82a 91bb d98b 15bc

decoder.decode_network.5.running_mean f4 [16]
-0.095533915 0.32429603 -0.020039676 0.06615456 -0.029023342 -0.37623408 -0.42156172 -0.21589139
-0.38266927 -0.34473148 -0.15592162 0.006941741 -0.24207817 0.19921851 0.24313322 -0.34894204
00000000: 49a7 c3bd 210a a63e 3f2a a4bc 0b7c 873d
00000010: 5cc2 edbc c1a1 c0be f0d6 d7be a212 5dbe
00000020: 3aed c3be a580 b0be eba9 1fbe 8b77 e33b
00000030: 57e3 77be f0ff 4b3e eaf7 783e 88a8 b2be

decoder.decode_network.5.running_var f4 [16]
0.1226681 0.049250603 0.0462489 0.027634207 0.040762387 0.050228998 0.045786183 0.04606369
0.08301289 0.11314039 0.059065912 0.04409306 0.14644085 0.076551296 0.061276022 0.09740876
00000000: 6a39 fb3d 00bb 493d 7d6f 3d3d 2261 e23c
00000010: 76f6 263d ecbc 4d3d 4b8a 3b3d 48ad 3c3d
00000020: a902 aa3d 26b6 e73d 19ef 713d ed9a 343d
00000030: 97f4 153e edc6 9c3d 91fc 7a3d 3e7e c73d

decoder.decode_network.8.weight f4 [16, 16, 3, 3]
0.017906273 0.060124483 0.051446613 0.068001166 0.036509708 0.0706773 0.061171293 -0.025049683
-0.03999947 -0.052002314 -0.081723526 -0.06771839 -0.012057045 -0.025138402 -0.021097796 -0.039363343
0.107099354 0.072507985 -0.01215507 0.035332896 0.062459607 -0.050577547 0.034561027 -0.073284455
-0.057215538 0.059427533 -0.012310362 -0.015545221 0.055960678 0.07104488 -0.0059744483 0.09207693
0.031595014 -0.026213292 0.033026814 0.04231911 -0.041086394 0.009393567 0.007385972 0.036291257
-0.027062465 0.10241003 0.056693442 -0.04648114 -0.032935943 -0.04666136 0.009999971 0.040740464
0.09035885 -0.03179659 0.02052918 0.00043156097 0.015849583 -0.03840013 0.02704029 -0.0022725018
0.049497746 0.09716663 -0.008644175 -0.101600185 0.0070187873 -0.01240734 -0.057915397 0.08704254
0.05687895 -0.023928143 0.06400713 0.08373656 0.035582907 0.111348696 0.0028584802 -0.049917914
-0.028425796 0.088194706 0.090601586 -0.029760102 -0.034398112 0.08358082 0.00016756845 0.06734765
0.049881406 0.0994738 0.02639499 0.019282985 0.0524636 -0.0583071 0.0048192767 -0.03624241
0.04149856 0.049719393 -0.010674029 0.032776993 0.052501 -0.018182775 0.050564554 -0.008263971
0.037259508 0.030980539 -0.024680723 -0.045821205 -0.024304276 -0.012265264 0.054263126 -0.024459822
0.028596854 -0.073352635 -0.09149519 -0.07985818 0.025426269 -0.0014357023 -0.007492377 0.032820966
-0.018902782 0.072157696 0.0151674645 -0.06650652 -0.0029916416 0.010210821 -0.07460795 -0.052527986
0.017843248 -0.033769205 -0.05050791 0.03917164 0.018839246 -0.016514074 -0.027270373 0.039515164
-0.0376504 -0.06324795 0.08601359 0.08055652 0.06595617 0.017121738 -0.043917403 0.040594473
0.028582133 0.019190049 0.04401582 -0.04180581 -0.035987172 0.023380414 0.0304223 -0.050071638
-0.053190146 -0.029081961 -0.02286654 -0.09548672 -0.057995435 -0.058201794 0.01006451 -0.048207544
0.026281532 0.06843151 0.09056616 -0.029791124 -0.050817247 -0.013798526 -0.0250837 0.09757479
0.10637697 -0.012000577 0.024670023 -0.091790855 0.05820385 0.056302562 -0.020519873 0.056199014
-0.026445843 -0.026171353 0.094922 -0.05678779 0.07333539 -0.041203197 -0.02234819 -0.067614086
-0.014608882 -0.019385658 0.10382661 0.04605551 0.06529821 -0.022363195 -0.026141997 -0.016857302
0.00011421427 0.08787943 0.032584842 -0.020856252 0.07530866 0.051066514 0.009298684 0.01743787
-0.0697388 -0.041352753 -0.049872026 -0.04370806 0.059989404 0.054876164 -0.068166934 0.07440359
0.075240284 0.068597846 0.0048295846 0.028217705 0.07137323 -0.031370603 -0.011118865 -0.00016118451
0.044975635 0.0441259 0.034036387 0.061642982 0.06836569 -0.035860438 -0.05518763 -0.058000855
0.06330721 -0.019528013 -0.007611473 0.007902747 -0.01397902 -0.055342514 -0.004766301 -0.048452213
-0.023892686 0.030507341 -0.038906984 -0.0020774682 -0.041177753 -0.06710222 0.08945052 -0.0128843095
-0.07438829 0.10150542 -0.044850543 -0.03701154 0.02211107 -0.060545884 -0.053469013 -0.027896086
0.06748004 -0.06350709 0.0073071863 -0.09982104 -0.039722294 -0.027346225 0.09167481 0.033148162
0.035997782 -0.090669855 0.023634367 -0.0082036825 0.08497874 -0.055786747 -0.066127524 0.082214154
00000000: 2db0 923c 1745 763d afb9 523d 3244 8b3d
00000010: 348b 153d 43bf 903d c08e 7a3d fe34 cdbc
00000020: 7cd6 23bd 6100 55bd aa5e a7bd f0af 8abd
00000030: e98a 45bc 0def cdbc 49d5 acbc 753b 21bd
00000040: e856 db3d 117f 943d 0f26 47bc 3ab9 103d
00000050: a5d5 7f3d 672a 4fbd dd8f 0d3d 2916 96bd
00000060: d75a 6abd 496a 733d 67b1 49bc 62b1 7ebc
00000070: 0637 653d fa7f 913d 4ec5 c3bb d492 bc3d
00000080: c669 013d 42bd d6bc 2047 073d ce56 2d3d
00000090: 354a 28bd 7ae7 193c 0606 f23b 24a6 143d
000000a0: 1ab2 ddbc 5abc d13d 6237 683d 0263 3ebd
000000b0: d7e7 06bd fb1f 3fbd ebd6 233c 79df 263d
000000c0: 100e b93d 243d 02bd d02c a83c 2243 e239
000000d0: fcd6 813c 7449 1dbd 9983 dd3c 41ee 14bb
000000e0: 26be 4a3d 4cff c63d 4ca0 0dbc c213 d0bd
000000f0: dbfd e53b 2848 4bbc b238 6dbd 5c43 b23d
00000100: e7f9 683d f404 c4bc 2c16 833d 137e ab3d
00000110: 62bf 113d c90a e43d 5755 3b3b ba76 4cbd
00000120: 37dd e8bc 6d9f b43d 538d b93d 75cb f3bc
00000130: 09e5 0cbd 6c2c ab3d 50b5 2f39 91ed 893d
00000140: 7250 4c3d ebb8 cb3d 4e3a d83c 5af7 9d3c
00000150: 12e4 563d 6dd3 6ebd 06eb 9d3b ec72 14bd
00000160: 65fa 293d 90a6 4b3d 1fe2 2ebc 2b41 063d
00000170: 4a0b 573d 0bf4 94bc c71c 4f3d 9b65 07bc
00000180: 6d9d 183d e6ca fd3c 3a2f cabc 04af 3bbd
00000190: c319 c7bc 3ff4 48bc 0343 5e3d f75f c8bc
000001a0: f343 ea3c e839 96bd d561 bbbd af8c a3bd
000001b0: c04a d03c 2d2e bcba 9d82 f5bb 476f 063d
000001c0: 02da 9abc 6ac7 933d f580 783c 9234 88bd
000001d0: 6b0f 44bb 4a4b 273c 0ecc 98bd 9627 57bd
000001e0: 012c 923c 9451 0abd 62e1 4ebd 7172 203d
000001f0: c354 9a3c 8648 87bc 1e66 dfbc a7da 213d
00000200: 4e37 1abd 2488 81bd e527 b03d d1fa a43d
00000210: 0714 873d e342 8c3c bce2 33bd 6446 263d
00000220: 1425 ea3c 7334 9d3c ef49 343d 923c 2bbd
00000230: 4967 13bd 4888 bf3c 3038 f93c eb17 4dbd
00000240: e9dd 59bd 4b3d eebc 9c52 bbbc 8b8e c3bd
00000250: 9f8c 6dbd 0165 6ebd 9de5 243c 4675 45bd
00000260: 5e4c d73c d225 8c3d c07a b93d 840c f4bc
00000270: bf25 50bd 3613 62bc 557c cdbc 4bd5 c73d
00000280: 2bdc d93d 119e 44bc ca18 ca3c d8fc bbbd
00000290: 2967 6e3d 849d 663d 4b19 a8bc f030 663d
000002a0: f4a4 d8bc 4e65 d6bc 7766 c23d 509a 68bd
000002b0: dd30 963d afc4 28bd 8d13 b7bc 4179 8abd
000002c0: 185a 6fbc acce 9ebc 0ca3 d43d b4a4 3c3d
000002d0: 11bb 853d 0533 b7bc be27 d6bc 5318 8abc
000002e0: 5286 ef38 21fa b33d af77 053d bbda aabc
000002f0: 6d3b 9a3d 1f2b 513d 8259 183c ddd9 8e3c
00000300: 37d3 8ebd 8161 29bd 9c46 4cbd 3907 33bd
00000310: 73b7 753d d4c5 603d 1b9b 8bbd e960 983d
00000320: 9417 9a3d 077d 8c3d 7e41 9e3b d128 e73c
00000330: 212c 923d 767e 00bd e62b 36bc a303 29b9
00000340: 5f38 383d 5cbd 343d bd69 0b3d 5a7d 7c3d
00000350: 5003 8c3d 65e2 12bd 6d0c 62bd 4e92 6dbd
00000360: 36a7 813d 36f9 9fbc aa69 f9bb 867a 013c
00000370: 4208 65bc d5ae 62bd a12e 9cbb d475 46bd
00000380: 98ba c3bc 88ea f93c ee5c 1fbd 2226 08bb
00000390: 01aa 28bd e46c 89bd d631 b73d b618 53bc
000003a0: e358 98bd 13e2 cf3d 34b5 37bd 6a99 17bd
000003b0: 4622 b53c f6fe 77bd 5302 5bbd 5586 e4bc
000003c0: fa32 8a3d 0110 82bd 1f71 ef3b f96e ccbd
000003d0: d8b3 22bd 3105 e0bc 01c0 bb3d 5ec6 073d
000003e0: 6972 133d 1eb1 b9bd dc9c c13c bd68 06bc
000003f0: 5509 ae3d a580 64bd de6d 87bd e55f a83d

decoder.decode_network.8.bias f4 [16]
-0.035034005 0.058433626 -0.05442468 0.026553616 -0.0050486918 0.0018868385 -0.06858119 0.03255708
0.0754607 0.07603689 -0.058704842 0.09602203 -0.045064274 0.025818296 0.07626997 0.020177789
00000000: d17f 0fbd 1958 6f3d 6aec 5ebd f886 d93c
00000010: 7f6f a5bb cb4f f73a 4c74 8cbd 935a 053d
00000020: 248b 9a3d 3bb9 9b3d 7d74 70bd 33a7 c43d
00000030: 5195 38bd e480 d33c 6e33 9c3d e44b a53c

decoder.decode_network.9.weight f4 [16]
0.98287827 0.9777186 0.9862687 0.9980596 1.0107518 0.98011255 1.0061466 0.99336314
0.9944822 1.0273465 0.97470134 1.0185062 1.0094148 1.0346972 1.0110962 0.98702973
00000000: e99d 7b3f c44b 7a3f 1b7c 7c3f d580 7f3f
00000010: 5160 813f a8e8 7a3f 69c9 803f 0c4d 7e3f
00000020: 6396 7e3f 1780 833f 0786 793f 695e 823f
00000030: 8134 813f f570 843f 9a6b 813f fbad 7c3f

decoder.decode_network.9.bias f4 [16]
-0.053804323 -0.039187554 -0.001683236 -0.0067330888 -0.009488556 -0.046503436 -0.035175484 -0.07769452
-0.037857503 0.004755137 -0.05519243 0.009460317 -0.030613964 0.0019346173 -0.0007193926 -0.064365
00000000: ec61 5cbd 2183 20bd 07a0 dcba 3ea1 dcbb
00000010: e375 1bbc 637a 3ebd 2b14 10bd 4e1e 9fbd
00000020: 7810 1bbd fbd0 9b3b 7511 62bd 72ff 1a3c
00000030: 23ca fabc fc92 fd3a 9f95 3cba ccd1 83bd

decoder.decode_network.9.running_mean f4 [16]
0.36696532 0.01834305 0.102965616 -0.2781241 0.032000348 -0.15088198 -0.1943533 -0.17481753
-0.21100435 -0.28439945 -0.22253035 0.2834109 0.007177419 -0.16478328 -0.04059771 -0.025351802
00000000: e1e2 bb3e 2a44 963c a3df d23d 4866 8ebe
00000010: cc12 033d ce80 1abe 8d04 47be 5e03 33be
00000020: 8611 58be ce9c 91be ffde 63be 3c1b 913e
00000030: 8e30 eb3b f3bc 28be c949 26bd 95ae cfbc

decoder.decode_network.9.running_var f4 [16]
0.13650313 0.038790934 0.074381046 0.07881388 0.082442485 0.09663544 0.050563186 0.06363594
0.081715666 0.05921814 0.13331288 0.09843722 0.14146358 0.074762285 0.0855511 0.061390776
00000000: 7ac7 0b3e 3ee3 1e3d 1755 983d 2c69 a13d
00000010: 9bd7 a83d cde8 c53d 581b 4f3d 8f53 823d
00000020: 8b5a a73d b88e 723d 2c83 083e 7499 c93d
00000030: d4db 103e f81c 993d 6a35 af3d e574 7b3d
